{"architecture":{"module":"keras.src.models.functional","class_name":"Functional","config":{"name":"KU-DNN_photonID_JetHT18RunBC_EGamma18RunC_shape_1000epochs_large8","trainable":true,"layers":[{"module":"keras.layers","class_name":"InputLayer","config":{"batch_shape":[null,5],"dtype":"float32","sparse":false,"ragged":false,"name":"input_layer"},"registered_name":null,"name":"input_layer","inbound_nodes":[]},{"module":"keras.layers","class_name":"Dense","config":{"name":"dense_layer0","trainable":true,"dtype":{"module":"keras","class_name":"DTypePolicy","config":{"name":"float32"},"registered_name":null},"units":8,"activation":"relu","use_bias":true,"kernel_initializer":{"module":"keras.initializers","class_name":"GlorotUniform","config":{"seed":null},"registered_name":null},"bias_initializer":{"module":"keras.initializers","class_name":"Zeros","config":{},"registered_name":null},"kernel_regularizer":null,"bias_regularizer":null,"kernel_constraint":null,"bias_constraint":null},"registered_name":null,"build_config":{"input_shape":[null,5]},"name":"dense_layer0","inbound_nodes":[{"args":[{"class_name":"__keras_tensor__","config":{"shape":[null,5],"dtype":"float32","keras_history":["input_layer",0,0]}}],"kwargs":{}}]},{"module":"keras.layers","class_name":"Dense","config":{"name":"dense_layer1","trainable":true,"dtype":{"module":"keras","class_name":"DTypePolicy","config":{"name":"float32"},"registered_name":null},"units":8,"activation":"relu","use_bias":true,"kernel_initializer":{"module":"keras.initializers","class_name":"GlorotUniform","config":{"seed":null},"registered_name":null},"bias_initializer":{"module":"keras.initializers","class_name":"Zeros","config":{},"registered_name":null},"kernel_regularizer":null,"bias_regularizer":null,"kernel_constraint":null,"bias_constraint":null},"registered_name":null,"build_config":{"input_shape":[null,8]},"name":"dense_layer1","inbound_nodes":[{"args":[{"class_name":"__keras_tensor__","config":{"shape":[null,8],"dtype":"float32","keras_history":["dense_layer0",0,0]}}],"kwargs":{}}]},{"module":"keras.layers","class_name":"Dense","config":{"name":"dense_layer2","trainable":true,"dtype":{"module":"keras","class_name":"DTypePolicy","config":{"name":"float32"},"registered_name":null},"units":8,"activation":"relu","use_bias":true,"kernel_initializer":{"module":"keras.initializers","class_name":"GlorotUniform","config":{"seed":null},"registered_name":null},"bias_initializer":{"module":"keras.initializers","class_name":"Zeros","config":{},"registered_name":null},"kernel_regularizer":null,"bias_regularizer":null,"kernel_constraint":null,"bias_constraint":null},"registered_name":null,"build_config":{"input_shape":[null,8]},"name":"dense_layer2","inbound_nodes":[{"args":[{"class_name":"__keras_tensor__","config":{"shape":[null,8],"dtype":"float32","keras_history":["dense_layer1",0,0]}}],"kwargs":{}}]},{"module":"keras.layers","class_name":"Dense","config":{"name":"dense_layer3","trainable":true,"dtype":{"module":"keras","class_name":"DTypePolicy","config":{"name":"float32"},"registered_name":null},"units":8,"activation":"relu","use_bias":true,"kernel_initializer":{"module":"keras.initializers","class_name":"GlorotUniform","config":{"seed":null},"registered_name":null},"bias_initializer":{"module":"keras.initializers","class_name":"Zeros","config":{},"registered_name":null},"kernel_regularizer":null,"bias_regularizer":null,"kernel_constraint":null,"bias_constraint":null},"registered_name":null,"build_config":{"input_shape":[null,8]},"name":"dense_layer3","inbound_nodes":[{"args":[{"class_name":"__keras_tensor__","config":{"shape":[null,8],"dtype":"float32","keras_history":["dense_layer2",0,0]}}],"kwargs":{}}]},{"module":"keras.layers","class_name":"Dense","config":{"name":"dense_layer4","trainable":true,"dtype":{"module":"keras","class_name":"DTypePolicy","config":{"name":"float32"},"registered_name":null},"units":8,"activation":"relu","use_bias":true,"kernel_initializer":{"module":"keras.initializers","class_name":"GlorotUniform","config":{"seed":null},"registered_name":null},"bias_initializer":{"module":"keras.initializers","class_name":"Zeros","config":{},"registered_name":null},"kernel_regularizer":null,"bias_regularizer":null,"kernel_constraint":null,"bias_constraint":null},"registered_name":null,"build_config":{"input_shape":[null,8]},"name":"dense_layer4","inbound_nodes":[{"args":[{"class_name":"__keras_tensor__","config":{"shape":[null,8],"dtype":"float32","keras_history":["dense_layer3",0,0]}}],"kwargs":{}}]},{"module":"keras.layers","class_name":"Dense","config":{"name":"output","trainable":true,"dtype":{"module":"keras","class_name":"DTypePolicy","config":{"name":"float32"},"registered_name":null},"units":1,"activation":"sigmoid","use_bias":true,"kernel_initializer":{"module":"keras.initializers","class_name":"GlorotUniform","config":{"seed":null},"registered_name":null},"bias_initializer":{"module":"keras.initializers","class_name":"Zeros","config":{},"registered_name":null},"kernel_regularizer":null,"bias_regularizer":null,"kernel_constraint":null,"bias_constraint":null},"registered_name":null,"build_config":{"input_shape":[null,8]},"name":"output","inbound_nodes":[{"args":[{"class_name":"__keras_tensor__","config":{"shape":[null,8],"dtype":"float32","keras_history":["dense_layer4",0,0]}}],"kwargs":{}}]}],"input_layers":[["input_layer",0,0]],"output_layers":[["output",0,0]]},"registered_name":"Functional","build_config":{"input_shape":null},"compile_config":{"optimizer":{"module":"keras.optimizers","class_name":"SGD","config":{"name":"SGD","learning_rate":0.009999999776482582,"weight_decay":null,"clipnorm":null,"global_clipnorm":null,"clipvalue":null,"use_ema":false,"ema_momentum":0.99,"ema_overwrite_frequency":null,"loss_scale_factor":null,"gradient_accumulation_steps":null,"momentum":0.0,"nesterov":false},"registered_name":null},"loss":"mse","loss_weights":null,"metrics":null,"weighted_metrics":null,"run_eagerly":false,"steps_per_execution":1,"jit_compile":false}},"image_data_format":"channels_last","input_shapes":[[5]],"output_shapes":[[1]],"tests":[{"inputs":[{"shape":[5],"values":["XlOsv4j6Qr/GWBU+LXoEvwSy8z4="]}],"outputs":[{"shape":[1],"values":["G7jQPQ=="]}]}],"trainable_params":{"dense_layer0":{"weights":["…"],"bias":["cOGpvQAAAAAcTb694dKPvhpXpz4AAAAAAAAAABGREb4="]},"dense_layer1":{"weights":["…"],"bias":["jPHhPl7ikb4AAAAAjgghvkELWb7LIaO+bxWxvWprrr4="]},"dense_layer2":{"weights":["…"],"bias":["JZYDP5YqgT9d6v69L+4MvpQjLj/kQlA+3miBvWZoAD8="]},"dense_layer3":{"weights":["…"],"bias":["r4cAvCvOmj0KOiM9jDaxvEJNJD2gQ7Q9MKl3P60XRT8="]},"dense_layer4":{"weights":["…"],"bias":["AAAAAL2Fob7dNQo/QgOruyKsur5e+oY9EpTQPv3bSr0="]},"output":{"weights":["4JzIPp0hyLzhliq/Kj43P20mYkBVvI0+++UqP1hNu74="],"bias":["Xmejvg=="]}},"hash":"87c9f27e00cb21ddb2727569f0c9e057dc58ecaac8b9f8e34faad0a705bfe7ff"}