{"architecture":{"module":"keras.src.models.functional","class_name":"Functional","config":{"name":"KU-DNN_photonID_testIsoPresel_100JetHTChunks_isoShape_1200epochs_large8_endcapOnly","trainable":true,"layers":[{"module":"keras.layers","class_name":"InputLayer","config":{"batch_shape":[null,10],"dtype":"float32","sparse":false,"ragged":false,"name":"input_layer"},"registered_name":null,"name":"input_layer","inbound_nodes":[]},{"module":"keras.layers","class_name":"Dense","config":{"name":"dense_layer0","trainable":true,"dtype":{"module":"keras","class_name":"DTypePolicy","config":{"name":"float32"},"registered_name":null},"units":8,"activation":"relu","use_bias":true,"kernel_initializer":{"module":"keras.initializers","class_name":"GlorotUniform","config":{"seed":null},"registered_name":null},"bias_initializer":{"module":"keras.initializers","class_name":"Zeros","config":{},"registered_name":null},"kernel_regularizer":null,"bias_regularizer":null,"kernel_constraint":null,"bias_constraint":null},"registered_name":null,"build_config":{"input_shape":[null,10]},"name":"dense_layer0","inbound_nodes":[{"args":[{"class_name":"__keras_tensor__","config":{"shape":[null,10],"dtype":"float32","keras_history":["input_layer",0,0]}}],"kwargs":{}}]},{"module":"keras.layers","class_name":"Dense","config":{"name":"dense_layer1","trainable":true,"dtype":{"module":"keras","class_name":"DTypePolicy","config":{"name":"float32"},"registered_name":null},"units":8,"activation":"relu","use_bias":true,"kernel_initializer":{"module":"keras.initializers","class_name":"GlorotUniform","config":{"seed":null},"registered_name":null},"bias_initializer":{"module":"keras.initializers","class_name":"Zeros","config":{},"registered_name":null},"kernel_regularizer":null,"bias_regularizer":null,"kernel_constraint":null,"bias_constraint":null},"registered_name":null,"build_config":{"input_shape":[null,8]},"name":"dense_layer1","inbound_nodes":[{"args":[{"class_name":"__keras_tensor__","config":{"shape":[null,8],"dtype":"float32","keras_history":["dense_layer0",0,0]}}],"kwargs":{}}]},{"module":"keras.layers","class_name":"Dense","config":{"name":"dense_layer2","trainable":true,"dtype":{"module":"keras","class_name":"DTypePolicy","config":{"name":"float32"},"registered_name":null},"units":8,"activation":"relu","use_bias":true,"kernel_initializer":{"module":"keras.initializers","class_name":"GlorotUniform","config":{"seed":null},"registered_name":null},"bias_initializer":{"module":"keras.initializers","class_name":"Zeros","config":{},"registered_name":null},"kernel_regularizer":null,"bias_regularizer":null,"kernel_constraint":null,"bias_constraint":null},"registered_name":null,"build_config":{"input_shape":[null,8]},"name":"dense_layer2","inbound_nodes":[{"args":[{"class_name":"__keras_tensor__","config":{"shape":[null,8],"dtype":"float32","keras_history":["dense_layer1",0,0]}}],"kwargs":{}}]},{"module":"keras.layers","class_name":"Dense","config":{"name":"dense_layer3","trainable":true,"dtype":{"module":"keras","class_name":"DTypePolicy","config":{"name":"float32"},"registered_name":null},"units":8,"activation":"relu","use_bias":true,"kernel_initializer":{"module":"keras.initializers","class_name":"GlorotUniform","config":{"seed":null},"registered_name":null},"bias_initializer":{"module":"keras.initializers","class_name":"Zeros","config":{},"registered_name":null},"kernel_regularizer":null,"bias_regularizer":null,"kernel_constraint":null,"bias_constraint":null},"registered_name":null,"build_config":{"input_shape":[null,8]},"name":"dense_layer3","inbound_nodes":[{"args":[{"class_name":"__keras_tensor__","config":{"shape":[null,8],"dtype":"float32","keras_history":["dense_layer2",0,0]}}],"kwargs":{}}]},{"module":"keras.layers","class_name":"Dense","config":{"name":"dense_layer4","trainable":true,"dtype":{"module":"keras","class_name":"DTypePolicy","config":{"name":"float32"},"registered_name":null},"units":8,"activation":"relu","use_bias":true,"kernel_initializer":{"module":"keras.initializers","class_name":"GlorotUniform","config":{"seed":null},"registered_name":null},"bias_initializer":{"module":"keras.initializers","class_name":"Zeros","config":{},"registered_name":null},"kernel_regularizer":null,"bias_regularizer":null,"kernel_constraint":null,"bias_constraint":null},"registered_name":null,"build_config":{"input_shape":[null,8]},"name":"dense_layer4","inbound_nodes":[{"args":[{"class_name":"__keras_tensor__","config":{"shape":[null,8],"dtype":"float32","keras_history":["dense_layer3",0,0]}}],"kwargs":{}}]},{"module":"keras.layers","class_name":"Dense","config":{"name":"output","trainable":true,"dtype":{"module":"keras","class_name":"DTypePolicy","config":{"name":"float32"},"registered_name":null},"units":1,"activation":"sigmoid","use_bias":true,"kernel_initializer":{"module":"keras.initializers","class_name":"GlorotUniform","config":{"seed":null},"registered_name":null},"bias_initializer":{"module":"keras.initializers","class_name":"Zeros","config":{},"registered_name":null},"kernel_regularizer":null,"bias_regularizer":null,"kernel_constraint":null,"bias_constraint":null},"registered_name":null,"build_config":{"input_shape":[null,8]},"name":"output","inbound_nodes":[{"args":[{"class_name":"__keras_tensor__","config":{"shape":[null,8],"dtype":"float32","keras_history":["dense_layer4",0,0]}}],"kwargs":{}}]}],"input_layers":[["input_layer",0,0]],"output_layers":[["output",0,0]]},"registered_name":"Functional","build_config":{"input_shape":null},"compile_config":{"optimizer":{"module":"keras.optimizers","class_name":"SGD","config":{"name":"SGD","learning_rate":0.009999999776482582,"weight_decay":null,"clipnorm":null,"global_clipnorm":null,"clipvalue":null,"use_ema":false,"ema_momentum":0.99,"ema_overwrite_frequency":null,"loss_scale_factor":null,"gradient_accumulation_steps":null,"momentum":0.0,"nesterov":false},"registered_name":null},"loss":"mse","loss_weights":null,"metrics":null,"weighted_metrics":null,"run_eagerly":false,"steps_per_execution":1,"jit_compile":false}},"image_data_format":"channels_last","input_shapes":[[10]],"output_shapes":[[1]],"tests":[{"inputs":[{"shape":[10],"values":["pGANviSwXj+pfI6/bhjyPWtEfj8AcGm/5m35Pys29D1215c+vXCGPw=="]}],"outputs":[{"shape":[1],"values":["9NPVMw=="]}]}],"trainable_params":{"dense_layer0":{"weights":["…"],"bias":["o8FDPsrwyTxL5Bq+XuICvR46YD017Uc+ZExOvCTDzrw="]},"dense_layer1":{"weights":["…"],"bias":["9UrcPjOeFj4IClU/kVblvJ6b6LyuoN6+XNk4PjgY+D4="]},"dense_layer2":{"weights":["…"],"bias":["AAAAAG55Rj/9r749mSkTPyAvgD/NrAY/oFNeP6WYpj8="]},"dense_layer3":{"weights":["…"],"bias":["S8IlwMNZG8Cb+Jo/SiCQPh4iwD+O4XO/dfoHP2joWTw="]},"dense_layer4":{"weights":["…"],"bias":["SRDivwArkb7IGUM/oDNav32UNT7o6JzAbSGCvfhp7L8="]},"output":{"weights":["lundvvywK7+Ynuo+txKKvmeloL6+d2a/ZEqlvjbaOr4="],"bias":["B1SiPg=="]}},"hash":"22ec64570b9e14fa56d6a7245418a2595d0f3a2205da1d8b6cc796c919d89a58"}