{"architecture":{"module":"keras.src.models.functional","class_name":"Functional","config":{"name":"KU-DNN_photonID_balancingClasses_4kEGammaChunks_newPreprocessing_test_isoShape_1200epochs_large8","trainable":true,"layers":[{"module":"keras.layers","class_name":"InputLayer","config":{"batch_shape":[null,10],"dtype":"float32","sparse":false,"ragged":false,"name":"input_layer"},"registered_name":null,"name":"input_layer","inbound_nodes":[]},{"module":"keras.layers","class_name":"Dense","config":{"name":"dense_layer0","trainable":true,"dtype":{"module":"keras","class_name":"DTypePolicy","config":{"name":"float32"},"registered_name":null},"units":8,"activation":"relu","use_bias":true,"kernel_initializer":{"module":"keras.initializers","class_name":"GlorotUniform","config":{"seed":null},"registered_name":null},"bias_initializer":{"module":"keras.initializers","class_name":"Zeros","config":{},"registered_name":null},"kernel_regularizer":null,"bias_regularizer":null,"kernel_constraint":null,"bias_constraint":null},"registered_name":null,"build_config":{"input_shape":[null,10]},"name":"dense_layer0","inbound_nodes":[{"args":[{"class_name":"__keras_tensor__","config":{"shape":[null,10],"dtype":"float32","keras_history":["input_layer",0,0]}}],"kwargs":{}}]},{"module":"keras.layers","class_name":"Dense","config":{"name":"dense_layer1","trainable":true,"dtype":{"module":"keras","class_name":"DTypePolicy","config":{"name":"float32"},"registered_name":null},"units":8,"activation":"relu","use_bias":true,"kernel_initializer":{"module":"keras.initializers","class_name":"GlorotUniform","config":{"seed":null},"registered_name":null},"bias_initializer":{"module":"keras.initializers","class_name":"Zeros","config":{},"registered_name":null},"kernel_regularizer":null,"bias_regularizer":null,"kernel_constraint":null,"bias_constraint":null},"registered_name":null,"build_config":{"input_shape":[null,8]},"name":"dense_layer1","inbound_nodes":[{"args":[{"class_name":"__keras_tensor__","config":{"shape":[null,8],"dtype":"float32","keras_history":["dense_layer0",0,0]}}],"kwargs":{}}]},{"module":"keras.layers","class_name":"Dense","config":{"name":"dense_layer2","trainable":true,"dtype":{"module":"keras","class_name":"DTypePolicy","config":{"name":"float32"},"registered_name":null},"units":8,"activation":"relu","use_bias":true,"kernel_initializer":{"module":"keras.initializers","class_name":"GlorotUniform","config":{"seed":null},"registered_name":null},"bias_initializer":{"module":"keras.initializers","class_name":"Zeros","config":{},"registered_name":null},"kernel_regularizer":null,"bias_regularizer":null,"kernel_constraint":null,"bias_constraint":null},"registered_name":null,"build_config":{"input_shape":[null,8]},"name":"dense_layer2","inbound_nodes":[{"args":[{"class_name":"__keras_tensor__","config":{"shape":[null,8],"dtype":"float32","keras_history":["dense_layer1",0,0]}}],"kwargs":{}}]},{"module":"keras.layers","class_name":"Dense","config":{"name":"dense_layer3","trainable":true,"dtype":{"module":"keras","class_name":"DTypePolicy","config":{"name":"float32"},"registered_name":null},"units":8,"activation":"relu","use_bias":true,"kernel_initializer":{"module":"keras.initializers","class_name":"GlorotUniform","config":{"seed":null},"registered_name":null},"bias_initializer":{"module":"keras.initializers","class_name":"Zeros","config":{},"registered_name":null},"kernel_regularizer":null,"bias_regularizer":null,"kernel_constraint":null,"bias_constraint":null},"registered_name":null,"build_config":{"input_shape":[null,8]},"name":"dense_layer3","inbound_nodes":[{"args":[{"class_name":"__keras_tensor__","config":{"shape":[null,8],"dtype":"float32","keras_history":["dense_layer2",0,0]}}],"kwargs":{}}]},{"module":"keras.layers","class_name":"Dense","config":{"name":"dense_layer4","trainable":true,"dtype":{"module":"keras","class_name":"DTypePolicy","config":{"name":"float32"},"registered_name":null},"units":8,"activation":"relu","use_bias":true,"kernel_initializer":{"module":"keras.initializers","class_name":"GlorotUniform","config":{"seed":null},"registered_name":null},"bias_initializer":{"module":"keras.initializers","class_name":"Zeros","config":{},"registered_name":null},"kernel_regularizer":null,"bias_regularizer":null,"kernel_constraint":null,"bias_constraint":null},"registered_name":null,"build_config":{"input_shape":[null,8]},"name":"dense_layer4","inbound_nodes":[{"args":[{"class_name":"__keras_tensor__","config":{"shape":[null,8],"dtype":"float32","keras_history":["dense_layer3",0,0]}}],"kwargs":{}}]},{"module":"keras.layers","class_name":"Dense","config":{"name":"output","trainable":true,"dtype":{"module":"keras","class_name":"DTypePolicy","config":{"name":"float32"},"registered_name":null},"units":1,"activation":"sigmoid","use_bias":true,"kernel_initializer":{"module":"keras.initializers","class_name":"GlorotUniform","config":{"seed":null},"registered_name":null},"bias_initializer":{"module":"keras.initializers","class_name":"Zeros","config":{},"registered_name":null},"kernel_regularizer":null,"bias_regularizer":null,"kernel_constraint":null,"bias_constraint":null},"registered_name":null,"build_config":{"input_shape":[null,8]},"name":"output","inbound_nodes":[{"args":[{"class_name":"__keras_tensor__","config":{"shape":[null,8],"dtype":"float32","keras_history":["dense_layer4",0,0]}}],"kwargs":{}}]}],"input_layers":[["input_layer",0,0]],"output_layers":[["output",0,0]]},"registered_name":"Functional","build_config":{"input_shape":null},"compile_config":{"optimizer":{"module":"keras.optimizers","class_name":"SGD","config":{"name":"SGD","learning_rate":0.009999999776482582,"weight_decay":null,"clipnorm":null,"global_clipnorm":null,"clipvalue":null,"use_ema":false,"ema_momentum":0.99,"ema_overwrite_frequency":null,"loss_scale_factor":null,"gradient_accumulation_steps":null,"momentum":0.0,"nesterov":false},"registered_name":null},"loss":"mse","loss_weights":null,"metrics":null,"weighted_metrics":null,"run_eagerly":false,"steps_per_execution":1,"jit_compile":false}},"image_data_format":"channels_last","input_shapes":[[10]],"output_shapes":[[1]],"tests":[{"inputs":[{"shape":[10],"values":["1oXHv2AMp7/8ww0/EHSJv3ByfD9gNJM/vMpkvL3JKL88UfE/49mqPw=="]}],"outputs":[{"shape":[1],"values":["AAAAAA=="]}]}],"trainable_params":{"dense_layer0":{"weights":["…"],"bias":["+Ql0PrilZr4hp8u9kj5dPtXjMj4CDMM97fhTPbL/gj4="]},"dense_layer1":{"weights":["…"],"bias":["5/CSv+vf0j/rBgBADrXQP1syYz/FusA+l/TjPm3jGEA="]},"dense_layer2":{"weights":["…"],"bias":["1oEXQHMvLz9cLe8/pTADwbdc/79dPIJAwLoMP73vUMA="]},"dense_layer3":{"weights":["…"],"bias":["hRe0wBG6/kD8HoLAZqcTvzuQK8H1ayTBA3AHv2z2vEA="]},"dense_layer4":{"weights":["…"],"bias":["a4ahvwT5VMBawJ1AM9cGul3p1r4KoKtA/5DGwEPOCsA="]},"output":{"weights":["Jvy9Pdl1gT12IoC+/IHwPV54Hz7VuJ+9Ccx8PRt/Ab4="],"bias":["qqfkPw=="]}},"hash":"671c8c218a7d734cc373f36541c3120834f68b5c814a5717d2ce6beca40dbd34"}